…
I0728 14:51:58.674723  5447 net.cpp:313] The NetState phase (0) differed from the phase (1) specified by a rule in layer accuracy
I0728 14:51:58.674909  5447 net.cpp:49] Initializing net from parameters: 
name: "CaffeNet"
state {
  phase: TRAIN
}
layer {
  name: "data"
  type: "Data"
  top: "data"
  top: "label"
  include {
    phase: TRAIN
  }
  transform_param {
    mirror: true
    crop_size: 227
    mean_file: "/home/manush/deeplearning-image-classifier/input/mean.binaryproto"
  }
  data_param {
    source: "/home/manush/deeplearning-image-classifier/input/train_lmdb"
    batch_size: 64
    backend: LMDB
  }
}
layer {
  name: "conv1"
  type: "Convolution"
  bottom: "data"
  top: "conv1"
  param {
    lr_mult: 1
    decay_mult: 1
  }
  param {
    lr_mult: 2
    decay_mult: 0
  }
  convolution_param {
    num_output: 96
    kernel_size: 11
    stride: 4
    weight_filler {
      type: "gaussian"
      std: 0.01
    }
    bias_filler {
      type: "constant"
      value: 0
    }
  }
}
layer {
  name: "relu1"
  type: "ReLU"
  bottom: "conv1"
  top: "conv1"
}
layer {
  name: "pool1"
  type: "Pooling"
  bottom: "conv1"
  top: "pool1"
  pooling_param {
    pool: MAX
    kernel_size: 3
    stride: 2
  }
}
layer {
  name: "norm1"
  type: "LRN"
  bottom: "pool1"
  top: "norm1"
  lrn_param {
    local_size: 5
    alpha: 0.0001
    beta: 0.75
  }
}
layer {
  name: "conv2"
  type: "Convolution"
  bottom: "norm1"
  top: "conv2"
  param {
    lr_mult: 1
    decay_mult: 1
  }
  param {
    lr_mult: 2
    decay_mult: 0
  }
  convolution_param {
    num_output: 256
    pad: 2
    kernel_size: 5
    group: 2
    weight_filler {
      type: "gaussian"
      std: 0.01
    }
    bias_filler {
      type: "constant"
      value: 1
    }
  }
}
layer {
  name: "relu2"
  type: "ReLU"
  bottom: "conv2"
  top: "conv2"
}
layer {
  name: "pool2"
  type: "Pooling"
  bottom: "conv2"
  top: "pool2"
  pooling_param {
    pool: MAX
    kernel_size: 3
    stride: 2
  }
}
layer {
  name: "norm2"
  type: "LRN"
  bottom: "pool2"
  top: "norm2"
  lrn_param {
    local_size: 5
    alpha: 0.0001
    beta: 0.75
  }
}
layer {
  name: "conv3"
  type: "Convolution"
  bottom: "norm2"
  top: "conv3"
  param {
    lr_mult: 1
    decay_mult: 1
  }
  param {
    lr_mult: 2
    decay_mult: 0
  }
  convolution_param {
    num_output: 384
    pad: 1
    kernel_size: 3
    weight_filler {
      type: "gaussian"
      std: 0.01
    }
    bias_filler {
      type: "constant"
      value: 0
    }
  }
}
layer {
  name: "relu3"
  type: "ReLU"
  bottom: "conv3"
  top: "conv3"
}
layer {
  name: "conv4"
  type: "Convolution"
  bottom: "conv3"
  top: "conv4"
  param {
    lr_mult: 1
    decay_mult: 1
  }
  param {
    lr_mult: 2
    decay_mult: 0
  }
  convolution_param {
    num_output: 384
    pad: 1
    kernel_size: 3
    group: 2
    weight_filler {
      type: "gaussian"
      std: 0.01
    }
    bias_filler {
      type: "constant"
      value: 1
    }
  }
}
layer {
  name: "relu4"
  type: "ReLU"
  bottom: "conv4"
  top: "conv4"
}
layer {
  name: "conv5"
  type: "Convolution"
  bottom: "conv4"
  top: "conv5"
  param {
    lr_mult: 1
    decay_mult: 1
  }
  param {
    lr_mult: 2
    decay_mult: 0
  }
  convolution_param {
    num_output: 256
    pad: 1
    kernel_size: 3
    group: 2
    weight_filler {
      type: "gaussian"
      std: 0.01
    }
    bias_filler {
      type: "constant"
      value: 1
    }
  }
}
layer {
  name: "relu5"
  type: "ReLU"
  bottom: "conv5"
  top: "conv5"
}
layer {
  name: "pool5"
  type: "Pooling"
  bottom: "conv5"
  top: "pool5"
  pooling_param {
    pool: MAX
    kernel_size: 3
    stride: 2
  }
}
layer {
  name: "fc6"
  type: "InnerProduct"
  bottom: "pool5"
  top: "fc6"
  param {
    lr_mult: 1
    decay_mult: 1
  }
  param {
    lr_mult: 2
    decay_mult: 0
  }
  inner_product_param {
    num_output: 4096
    weight_filler {
      type: "gaussian"
      std: 0.005
    }
    bias_filler {
      type: "constant"
      value: 1
    }
  }
}
layer {
  name: "relu6"
  type: "ReLU"
  bottom: "fc6"
  top: "fc6"
}
layer {
  name: "drop6"
  type: "Dropout"
  bottom: "fc6"
  top: "fc6"
  dropout_param {
    dropout_ratio: 0.5
  }
}
layer {
  name: "fc7"
  type: "InnerProduct"
  bottom: "fc6"
  top: "fc7"
  param {
    lr_mult: 1
    decay_mult: 1
  }
  param {
    lr_mult: 2
    decay_mult: 0
  }
  inner_product_param {
    num_output: 4096
    weight_filler {
      type: "gaussian"
      std: 0.005
    }
    bias_filler {
      type: "constant"
      value: 1
    }
  }
}
layer {
  name: "relu7"
  type: "ReLU"
  bottom: "fc7"
  top: "fc7"
}
layer {
  name: "drop7"
  type: "Dropout"
  bottom: "fc7"
  top: "fc7"
  dropout_param {
    dropout_ratio: 0.5
  }
}
layer {
  name: "fc8"
  type: "InnerProduct"
  bottom: "fc7"
  top: "fc8"
  param {
    lr_mult: 1
    decay_mult: 1
  }
  param {
    lr_mult: 2
    decay_mult: 0
  }
  inner_product_param {
    num_output: 2
    weight_filler {
      type: "gaussian"
      std: 0.01
    }
    bias_filler {
      type: "constant"
      value: 0
    }
  }
}
layer {
  name: "loss"
  type: "SoftmaxWithLoss"
  bottom: "fc8"
  bottom: "label"
  top: "loss"
}
I0728 14:51:58.675040  5447 layer_factory.hpp:77] Creating layer data
I0728 14:51:58.675585  5447 net.cpp:91] Creating Layer data
I0728 14:51:58.675622  5447 net.cpp:399] data -> data
I0728 14:51:58.675657  5447 net.cpp:399] data -> label
I0728 14:51:58.675683  5447 data_transformer.cpp:25] Loading mean file from: /home/manush/deeplearning-image-classifier/input/mean.binaryproto
I0728 14:51:58.694092  5453 db_lmdb.cpp:35] Opened lmdb /home/manush/deeplearning-image-classifier/input/train_lmdb
I0728 14:51:58.711952  5447 data_layer.cpp:41] output data size: 64,3,227,227
I0728 14:51:58.780658  5447 net.cpp:141] Setting up data
I0728 14:51:58.780738  5447 net.cpp:148] Top shape: 64 3 227 227 (9893568)
I0728 14:51:58.780752  5447 net.cpp:148] Top shape: 64 (64)
I0728 14:51:58.780760  5447 net.cpp:156] Memory required for data: 39574528
I0728 14:51:58.780776  5447 layer_factory.hpp:77] Creating layer conv1
I0728 14:51:58.780802  5447 net.cpp:91] Creating Layer conv1
I0728 14:51:58.780812  5447 net.cpp:425] conv1 <- data
I0728 14:51:58.780832  5447 net.cpp:399] conv1 -> conv1
I0728 14:51:58.789415  5447 net.cpp:141] Setting up conv1
I0728 14:51:58.789469  5447 net.cpp:148] Top shape: 64 96 55 55 (18585600)
I0728 14:51:58.789486  5447 net.cpp:156] Memory required for data: 113916928
I0728 14:51:58.789528  5447 layer_factory.hpp:77] Creating layer relu1
I0728 14:51:58.789549  5447 net.cpp:91] Creating Layer relu1
I0728 14:51:58.789559  5447 net.cpp:425] relu1 <- conv1
I0728 14:51:58.789573  5447 net.cpp:386] relu1 -> conv1 (in-place)
I0728 14:51:58.789593  5447 net.cpp:141] Setting up relu1
I0728 14:51:58.789604  5447 net.cpp:148] Top shape: 64 96 55 55 (18585600)
I0728 14:51:58.789613  5447 net.cpp:156] Memory required for data: 188259328
I0728 14:51:58.789620  5447 layer_factory.hpp:77] Creating layer pool1
I0728 14:51:58.789633  5447 net.cpp:91] Creating Layer pool1
I0728 14:51:58.789640  5447 net.cpp:425] pool1 <- conv1
I0728 14:51:58.789651  5447 net.cpp:399] pool1 -> pool1
I0728 14:51:58.789717  5447 net.cpp:141] Setting up pool1
I0728 14:51:58.789737  5447 net.cpp:148] Top shape: 64 96 27 27 (4478976)
I0728 14:51:58.789746  5447 net.cpp:156] Memory required for data: 206175232
I0728 14:51:58.789777  5447 layer_factory.hpp:77] Creating layer norm1
I0728 14:51:58.789793  5447 net.cpp:91] Creating Layer norm1
I0728 14:51:58.789803  5447 net.cpp:425] norm1 <- pool1
I0728 14:51:58.789813  5447 net.cpp:399] norm1 -> norm1
I0728 14:51:58.789866  5447 net.cpp:141] Setting up norm1
I0728 14:51:58.789881  5447 net.cpp:148] Top shape: 64 96 27 27 (4478976)
I0728 14:51:58.789890  5447 net.cpp:156] Memory required for data: 224091136
I0728 14:51:58.789898  5447 layer_factory.hpp:77] Creating layer conv2
I0728 14:51:58.789916  5447 net.cpp:91] Creating Layer conv2
I0728 14:51:58.789924  5447 net.cpp:425] conv2 <- norm1
I0728 14:51:58.789937  5447 net.cpp:399] conv2 -> conv2
I0728 14:51:58.801050  5447 net.cpp:141] Setting up conv2
I0728 14:51:58.801087  5447 net.cpp:148] Top shape: 64 256 27 27 (11943936)
I0728 14:51:58.801095  5447 net.cpp:156] Memory required for data: 271866880
I0728 14:51:58.801115  5447 layer_factory.hpp:77] Creating layer relu2
I0728 14:51:58.801131  5447 net.cpp:91] Creating Layer relu2
I0728 14:51:58.801139  5447 net.cpp:425] relu2 <- conv2
I0728 14:51:58.801151  5447 net.cpp:386] relu2 -> conv2 (in-place)
I0728 14:51:58.801167  5447 net.cpp:141] Setting up relu2
I0728 14:51:58.801174  5447 net.cpp:148] Top shape: 64 256 27 27 (11943936)
I0728 14:51:58.801179  5447 net.cpp:156] Memory required for data: 319642624
I0728 14:51:58.801185  5447 layer_factory.hpp:77] Creating layer pool2
I0728 14:51:58.801194  5447 net.cpp:91] Creating Layer pool2
I0728 14:51:58.801200  5447 net.cpp:425] pool2 <- conv2
I0728 14:51:58.801208  5447 net.cpp:399] pool2 -> pool2
I0728 14:51:58.801247  5447 net.cpp:141] Setting up pool2
I0728 14:51:58.801259  5447 net.cpp:148] Top shape: 64 256 13 13 (2768896)
I0728 14:51:58.801265  5447 net.cpp:156] Memory required for data: 330718208
I0728 14:51:58.801271  5447 layer_factory.hpp:77] Creating layer norm2
I0728 14:51:58.801285  5447 net.cpp:91] Creating Layer norm2
I0728 14:51:58.801290  5447 net.cpp:425] norm2 <- pool2
I0728 14:51:58.801298  5447 net.cpp:399] norm2 -> norm2
I0728 14:51:58.801331  5447 net.cpp:141] Setting up norm2
I0728 14:51:58.801339  5447 net.cpp:148] Top shape: 64 256 13 13 (2768896)
I0728 14:51:58.801345  5447 net.cpp:156] Memory required for data: 341793792
I0728 14:51:58.801352  5447 layer_factory.hpp:77] Creating layer conv3
I0728 14:51:58.801365  5447 net.cpp:91] Creating Layer conv3
I0728 14:51:58.801373  5447 net.cpp:425] conv3 <- norm2
I0728 14:51:58.801380  5447 net.cpp:399] conv3 -> conv3
I0728 14:51:58.803092  5454 blocking_queue.cpp:50] Waiting for data
I0728 14:51:58.827607  5447 net.cpp:141] Setting up conv3
I0728 14:51:58.827648  5447 net.cpp:148] Top shape: 64 384 13 13 (4153344)
I0728 14:51:58.827656  5447 net.cpp:156] Memory required for data: 358407168
I0728 14:51:58.827672  5447 layer_factory.hpp:77] Creating layer relu3
I0728 14:51:58.827684  5447 net.cpp:91] Creating Layer relu3
I0728 14:51:58.827692  5447 net.cpp:425] relu3 <- conv3
I0728 14:51:58.827702  5447 net.cpp:386] relu3 -> conv3 (in-place)
I0728 14:51:58.827713  5447 net.cpp:141] Setting up relu3
I0728 14:51:58.827720  5447 net.cpp:148] Top shape: 64 384 13 13 (4153344)
I0728 14:51:58.827726  5447 net.cpp:156] Memory required for data: 375020544
I0728 14:51:58.827733  5447 layer_factory.hpp:77] Creating layer conv4
I0728 14:51:58.827745  5447 net.cpp:91] Creating Layer conv4
I0728 14:51:58.827752  5447 net.cpp:425] conv4 <- conv3
I0728 14:51:58.827761  5447 net.cpp:399] conv4 -> conv4
I0728 14:51:58.847543  5447 net.cpp:141] Setting up conv4
I0728 14:51:58.847573  5447 net.cpp:148] Top shape: 64 384 13 13 (4153344)
I0728 14:51:58.847579  5447 net.cpp:156] Memory required for data: 391633920
I0728 14:51:58.847592  5447 layer_factory.hpp:77] Creating layer relu4
I0728 14:51:58.847605  5447 net.cpp:91] Creating Layer relu4
I0728 14:51:58.847614  5447 net.cpp:425] relu4 <- conv4
I0728 14:51:58.847623  5447 net.cpp:386] relu4 -> conv4 (in-place)
I0728 14:51:58.847635  5447 net.cpp:141] Setting up relu4
I0728 14:51:58.847642  5447 net.cpp:148] Top shape: 64 384 13 13 (4153344)
I0728 14:51:58.847666  5447 net.cpp:156] Memory required for data: 408247296
I0728 14:51:58.847672  5447 layer_factory.hpp:77] Creating layer conv5
I0728 14:51:58.847687  5447 net.cpp:91] Creating Layer conv5
I0728 14:51:58.847692  5447 net.cpp:425] conv5 <- conv4
I0728 14:51:58.847702  5447 net.cpp:399] conv5 -> conv5
I0728 14:51:58.860988  5447 net.cpp:141] Setting up conv5
I0728 14:51:58.861016  5447 net.cpp:148] Top shape: 64 256 13 13 (2768896)
I0728 14:51:58.861022  5447 net.cpp:156] Memory required for data: 419322880
I0728 14:51:58.861045  5447 layer_factory.hpp:77] Creating layer relu5
I0728 14:51:58.861073  5447 net.cpp:91] Creating Layer relu5
I0728 14:51:58.861080  5447 net.cpp:425] relu5 <- conv5
I0728 14:51:58.861090  5447 net.cpp:386] relu5 -> conv5 (in-place)
I0728 14:51:58.861102  5447 net.cpp:141] Setting up relu5
I0728 14:51:58.861110  5447 net.cpp:148] Top shape: 64 256 13 13 (2768896)
I0728 14:51:58.861115  5447 net.cpp:156] Memory required for data: 430398464
I0728 14:51:58.861121  5447 layer_factory.hpp:77] Creating layer pool5
I0728 14:51:58.861130  5447 net.cpp:91] Creating Layer pool5
I0728 14:51:58.861136  5447 net.cpp:425] pool5 <- conv5
I0728 14:51:58.861145  5447 net.cpp:399] pool5 -> pool5
I0728 14:51:58.861181  5447 net.cpp:141] Setting up pool5
I0728 14:51:58.861191  5447 net.cpp:148] Top shape: 64 256 6 6 (589824)
I0728 14:51:58.861197  5447 net.cpp:156] Memory required for data: 432757760
I0728 14:51:58.861203  5447 layer_factory.hpp:77] Creating layer fc6
I0728 14:51:58.861215  5447 net.cpp:91] Creating Layer fc6
I0728 14:51:58.861224  5447 net.cpp:425] fc6 <- pool5
I0728 14:51:58.861233  5447 net.cpp:399] fc6 -> fc6
I0728 14:51:59.935725  5447 net.cpp:141] Setting up fc6
I0728 14:51:59.935761  5447 net.cpp:148] Top shape: 64 4096 (262144)
I0728 14:51:59.935770  5447 net.cpp:156] Memory required for data: 433806336
I0728 14:51:59.935791  5447 layer_factory.hpp:77] Creating layer relu6
I0728 14:51:59.935806  5447 net.cpp:91] Creating Layer relu6
I0728 14:51:59.935812  5447 net.cpp:425] relu6 <- fc6
I0728 14:51:59.935822  5447 net.cpp:386] relu6 -> fc6 (in-place)
I0728 14:51:59.935835  5447 net.cpp:141] Setting up relu6
I0728 14:51:59.935842  5447 net.cpp:148] Top shape: 64 4096 (262144)
I0728 14:51:59.935848  5447 net.cpp:156] Memory required for data: 434854912
I0728 14:51:59.935854  5447 layer_factory.hpp:77] Creating layer drop6
I0728 14:51:59.935868  5447 net.cpp:91] Creating Layer drop6
I0728 14:51:59.935874  5447 net.cpp:425] drop6 <- fc6
I0728 14:51:59.935881  5447 net.cpp:386] drop6 -> fc6 (in-place)
I0728 14:51:59.935910  5447 net.cpp:141] Setting up drop6
I0728 14:51:59.935920  5447 net.cpp:148] Top shape: 64 4096 (262144)
I0728 14:51:59.935926  5447 net.cpp:156] Memory required for data: 435903488
I0728 14:51:59.935932  5447 layer_factory.hpp:77] Creating layer fc7
I0728 14:51:59.935943  5447 net.cpp:91] Creating Layer fc7
I0728 14:51:59.935950  5447 net.cpp:425] fc7 <- fc6
I0728 14:51:59.935957  5447 net.cpp:399] fc7 -> fc7
I0728 14:52:00.414657  5447 net.cpp:141] Setting up fc7
I0728 14:52:00.414690  5447 net.cpp:148] Top shape: 64 4096 (262144)
I0728 14:52:00.414710  5447 net.cpp:156] Memory required for data: 436952064
I0728 14:52:00.414723  5447 layer_factory.hpp:77] Creating layer relu7
I0728 14:52:00.414750  5447 net.cpp:91] Creating Layer relu7
I0728 14:52:00.414758  5447 net.cpp:425] relu7 <- fc7
I0728 14:52:00.414768  5447 net.cpp:386] relu7 -> fc7 (in-place)
I0728 14:52:00.414782  5447 net.cpp:141] Setting up relu7
I0728 14:52:00.414788  5447 net.cpp:148] Top shape: 64 4096 (262144)
I0728 14:52:00.414794  5447 net.cpp:156] Memory required for data: 438000640
I0728 14:52:00.414800  5447 layer_factory.hpp:77] Creating layer drop7
I0728 14:52:00.414809  5447 net.cpp:91] Creating Layer drop7
I0728 14:52:00.414815  5447 net.cpp:425] drop7 <- fc7
I0728 14:52:00.414822  5447 net.cpp:386] drop7 -> fc7 (in-place)
I0728 14:52:00.414846  5447 net.cpp:141] Setting up drop7
I0728 14:52:00.414856  5447 net.cpp:148] Top shape: 64 4096 (262144)
I0728 14:52:00.414880  5447 net.cpp:156] Memory required for data: 439049216
I0728 14:52:00.414887  5447 layer_factory.hpp:77] Creating layer fc8
I0728 14:52:00.414897  5447 net.cpp:91] Creating Layer fc8
I0728 14:52:00.414903  5447 net.cpp:425] fc8 <- fc7
I0728 14:52:00.414912  5447 net.cpp:399] fc8 -> fc8
I0728 14:52:00.415647  5447 net.cpp:141] Setting up fc8
I0728 14:52:00.415662  5447 net.cpp:148] Top shape: 64 2 (128)
I0728 14:52:00.415668  5447 net.cpp:156] Memory required for data: 439049728
I0728 14:52:00.415676  5447 layer_factory.hpp:77] Creating layer loss
I0728 14:52:00.415689  5447 net.cpp:91] Creating Layer loss
I0728 14:52:00.415709  5447 net.cpp:425] loss <- fc8
I0728 14:52:00.415716  5447 net.cpp:425] loss <- label
I0728 14:52:00.415727  5447 net.cpp:399] loss -> loss
I0728 14:52:00.415746  5447 layer_factory.hpp:77] Creating layer loss
…
I0728 14:52:00.416802  5447 net.cpp:313] The NetState phase (1) differed from the phase (0) specified by a rule in layer data
I0728 14:52:00.417001  5447 net.cpp:49] Initializing net from parameters: 
name: "CaffeNet"
state {
  phase: TEST
}
layer {
  name: "data"
  type: "Data"
  top: "data"
  top: "label"
  include {
    phase: TEST
  }
  transform_param {
    mirror: false
    crop_size: 227
    mean_file: "/home/manush/deeplearning-image-classifier/input/mean.binaryproto"
  }
  data_param {
    source: "/home/manush/deeplearning-image-classifier/input/validation_lmdb"
    batch_size: 25
    backend: LMDB
  }
}
layer {
  name: "conv1"
  type: "Convolution"
  bottom: "data"
  top: "conv1"
  param {
    lr_mult: 1
    decay_mult: 1
  }
  param {
    lr_mult: 2
    decay_mult: 0
  }
  convolution_param {
    num_output: 96
    kernel_size: 11
    stride: 4
    weight_filler {
      type: "gaussian"
      std: 0.01
    }
    bias_filler {
      type: "constant"
      value: 0
    }
  }
}
layer {
  name: "relu1"
  type: "ReLU"
  bottom: "conv1"
  top: "conv1"
}
layer {
  name: "pool1"
  type: "Pooling"
  bottom: "conv1"
  top: "pool1"
  pooling_param {
    pool: MAX
    kernel_size: 3
    stride: 2
  }
}
layer {
  name: "norm1"
  type: "LRN"
  bottom: "pool1"
  top: "norm1"
  lrn_param {
    local_size: 5
    alpha: 0.0001
    beta: 0.75
  }
}
layer {
  name: "conv2"
  type: "Convolution"
  bottom: "norm1"
  top: "conv2"
  param {
    lr_mult: 1
    decay_mult: 1
  }
  param {
    lr_mult: 2
    decay_mult: 0
  }
  convolution_param {
    num_output: 256
    pad: 2
    kernel_size: 5
    group: 2
    weight_filler {
      type: "gaussian"
      std: 0.01
    }
    bias_filler {
      type: "constant"
      value: 1
    }
  }
}
layer {
  name: "relu2"
  type: "ReLU"
  bottom: "conv2"
  top: "conv2"
}
layer {
  name: "pool2"
  type: "Pooling"
  bottom: "conv2"
  top: "pool2"
  pooling_param {
    pool: MAX
    kernel_size: 3
    stride: 2
  }
}
layer {
  name: "norm2"
  type: "LRN"
  bottom: "pool2"
  top: "norm2"
  lrn_param {
    local_size: 5
    alpha: 0.0001
    beta: 0.75
  }
}
layer {
  name: "conv3"
  type: "Convolution"
  bottom: "norm2"
  top: "conv3"
  param {
    lr_mult: 1
    decay_mult: 1
  }
  param {
    lr_mult: 2
    decay_mult: 0
  }
  convolution_param {
    num_output: 384
    pad: 1
    kernel_size: 3
    weight_filler {
      type: "gaussian"
      std: 0.01
    }
    bias_filler {
      type: "constant"
      value: 0
    }
  }
}
layer {
  name: "relu3"
  type: "ReLU"
  bottom: "conv3"
  top: "conv3"
}
layer {
  name: "conv4"
  type: "Convolution"
  bottom: "conv3"
  top: "conv4"
  param {
    lr_mult: 1
    decay_mult: 1
  }
  param {
    lr_mult: 2
    decay_mult: 0
  }
  convolution_param {
    num_output: 384
    pad: 1
    kernel_size: 3
    group: 2
    weight_filler {
      type: "gaussian"
      std: 0.01
    }
    bias_filler {
      type: "constant"
      value: 1
    }
  }
}
layer {
  name: "relu4"
  type: "ReLU"
  bottom: "conv4"
  top: "conv4"
}
layer {
  name: "conv5"
  type: "Convolution"
  bottom: "conv4"
  top: "conv5"
  param {
    lr_mult: 1
    decay_mult: 1
  }
  param {
    lr_mult: 2
    decay_mult: 0
  }
  convolution_param {
    num_output: 256
    pad: 1
    kernel_size: 3
    group: 2
    weight_filler {
      type: "gaussian"
      std: 0.01
    }
    bias_filler {
      type: "constant"
      value: 1
    }
  }
}
layer {
  name: "relu5"
  type: "ReLU"
  bottom: "conv5"
  top: "conv5"
}
layer {
  name: "pool5"
  type: "Pooling"
  bottom: "conv5"
  top: "pool5"
  pooling_param {
    pool: MAX
    kernel_size: 3
    stride: 2
  }
}
layer {
  name: "fc6"
  type: "InnerProduct"
  bottom: "pool5"
  top: "fc6"
  param {
    lr_mult: 1
    decay_mult: 1
  }
  param {
    lr_mult: 2
    decay_mult: 0
  }
  inner_product_param {
    num_output: 4096
    weight_filler {
      type: "gaussian"
      std: 0.005
    }
    bias_filler {
      type: "constant"
      value: 1
    }
  }
}
layer {
  name: "relu6"
  type: "ReLU"
  bottom: "fc6"
  top: "fc6"
}
layer {
  name: "drop6"
  type: "Dropout"
  bottom: "fc6"
  top: "fc6"
  dropout_param {
    dropout_ratio: 0.5
  }
}
layer {
  name: "fc7"
  type: "InnerProduct"
  bottom: "fc6"
  top: "fc7"
  param {
    lr_mult: 1
    decay_mult: 1
  }
  param {
    lr_mult: 2
    decay_mult: 0
  }
  inner_product_param {
    num_output: 4096
    weight_filler {
      type: "gaussian"
      std: 0.005
    }
    bias_filler {
      type: "constant"
      value: 1
    }
  }
}
layer {
  name: "relu7"
  type: "ReLU"
  bottom: "fc7"
  top: "fc7"
}
layer {
  name: "drop7"
  type: "Dropout"
  bottom: "fc7"
  top: "fc7"
  dropout_param {
    dropout_ratio: 0.5
  }
}
layer {
  name: "fc8"
  type: "InnerProduct"
  bottom: "fc7"
  top: "fc8"
  param {
    lr_mult: 1
    decay_mult: 1
  }
  param {
    lr_mult: 2
    decay_mult: 0
  }
  inner_product_param {
    num_output: 2
    weight_filler {
      type: "gaussian"
      std: 0.01
    }
    bias_filler {
      type: "constant"
      value: 0
    }
  }
}
layer {
  name: "accuracy"
  type: "Accuracy"
  bottom: "fc8"
  bottom: "label"
  top: "accuracy"
  include {
    phase: TEST
  }
}
layer {
  name: "loss"
  type: "SoftmaxWithLoss"
  bottom: "fc8"
  bottom: "label"
  top: "loss"
}
I0728 14:52:00.417163  5447 layer_factory.hpp:77] Creating layer data
I0728 14:52:00.417251  5447 net.cpp:91] Creating Layer data
I0728 14:52:00.417263  5447 net.cpp:399] data -> data
I0728 14:52:00.417274  5447 net.cpp:399] data -> label
I0728 14:52:00.417286  5447 data_transformer.cpp:25] Loading mean file from: /home/manush/deeplearning-image-classifier/input/mean.binaryproto
I0728 14:52:00.417976  5456 db_lmdb.cpp:35] Opened lmdb /home/manush/deeplearning-image-classifier/input/validation_lmdb
I0728 14:52:00.419203  5447 data_layer.cpp:41] output data size: 25,3,227,227
I0728 14:52:00.450008  5447 net.cpp:141] Setting up data
I0728 14:52:00.450042  5447 net.cpp:148] Top shape: 25 3 227 227 (3864675)
I0728 14:52:00.450052  5447 net.cpp:148] Top shape: 25 (25)
I0728 14:52:00.450058  5447 net.cpp:156] Memory required for data: 15458800
I0728 14:52:00.450067  5447 layer_factory.hpp:77] Creating layer label_data_1_split
I0728 14:52:00.450085  5447 net.cpp:91] Creating Layer label_data_1_split
I0728 14:52:00.450093  5447 net.cpp:425] label_data_1_split <- label
I0728 14:52:00.450103  5447 net.cpp:399] label_data_1_split -> label_data_1_split_0
I0728 14:52:00.450116  5447 net.cpp:399] label_data_1_split -> label_data_1_split_1
I0728 14:52:00.450171  5447 net.cpp:141] Setting up label_data_1_split
I0728 14:52:00.450182  5447 net.cpp:148] Top shape: 25 (25)
I0728 14:52:00.450189  5447 net.cpp:148] Top shape: 25 (25)
I0728 14:52:00.450196  5447 net.cpp:156] Memory required for data: 15459000
I0728 14:52:00.450201  5447 layer_factory.hpp:77] Creating layer conv1
I0728 14:52:00.450217  5447 net.cpp:91] Creating Layer conv1
I0728 14:52:00.450223  5447 net.cpp:425] conv1 <- data
I0728 14:52:00.450233  5447 net.cpp:399] conv1 -> conv1
I0728 14:52:00.453888  5447 net.cpp:141] Setting up conv1
I0728 14:52:00.453923  5447 net.cpp:148] Top shape: 25 96 55 55 (7260000)
I0728 14:52:00.453934  5447 net.cpp:156] Memory required for data: 44499000
I0728 14:52:00.453958  5447 layer_factory.hpp:77] Creating layer relu1
I0728 14:52:00.453975  5447 net.cpp:91] Creating Layer relu1
I0728 14:52:00.453986  5447 net.cpp:425] relu1 <- conv1
I0728 14:52:00.453999  5447 net.cpp:386] relu1 -> conv1 (in-place)
I0728 14:52:00.454016  5447 net.cpp:141] Setting up relu1
I0728 14:52:00.454028  5447 net.cpp:148] Top shape: 25 96 55 55 (7260000)
I0728 14:52:00.454038  5447 net.cpp:156] Memory required for data: 73539000
I0728 14:52:00.454048  5447 layer_factory.hpp:77] Creating layer pool1
I0728 14:52:00.454064  5447 net.cpp:91] Creating Layer pool1
I0728 14:52:00.454074  5447 net.cpp:425] pool1 <- conv1
I0728 14:52:00.454088  5447 net.cpp:399] pool1 -> pool1
I0728 14:52:00.454149  5447 net.cpp:141] Setting up pool1
I0728 14:52:00.454166  5447 net.cpp:148] Top shape: 25 96 27 27 (1749600)
I0728 14:52:00.454176  5447 net.cpp:156] Memory required for data: 80537400
I0728 14:52:00.454186  5447 layer_factory.hpp:77] Creating layer norm1
I0728 14:52:00.454202  5447 net.cpp:91] Creating Layer norm1
I0728 14:52:00.454212  5447 net.cpp:425] norm1 <- pool1
I0728 14:52:00.454226  5447 net.cpp:399] norm1 -> norm1
I0728 14:52:00.454280  5447 net.cpp:141] Setting up norm1
I0728 14:52:00.454298  5447 net.cpp:148] Top shape: 25 96 27 27 (1749600)
I0728 14:52:00.454308  5447 net.cpp:156] Memory required for data: 87535800
I0728 14:52:00.454316  5447 layer_factory.hpp:77] Creating layer conv2
I0728 14:52:00.454335  5447 net.cpp:91] Creating Layer conv2
I0728 14:52:00.454345  5447 net.cpp:425] conv2 <- norm1
I0728 14:52:00.454360  5447 net.cpp:399] conv2 -> conv2
I0728 14:52:00.468719  5447 net.cpp:141] Setting up conv2
I0728 14:52:00.468752  5447 net.cpp:148] Top shape: 25 256 27 27 (4665600)
I0728 14:52:00.468760  5447 net.cpp:156] Memory required for data: 106198200
I0728 14:52:00.468806  5447 layer_factory.hpp:77] Creating layer relu2
I0728 14:52:00.468822  5447 net.cpp:91] Creating Layer relu2
I0728 14:52:00.468830  5447 net.cpp:425] relu2 <- conv2
I0728 14:52:00.468839  5447 net.cpp:386] relu2 -> conv2 (in-place)
I0728 14:52:00.468853  5447 net.cpp:141] Setting up relu2
I0728 14:52:00.468860  5447 net.cpp:148] Top shape: 25 256 27 27 (4665600)
I0728 14:52:00.468866  5447 net.cpp:156] Memory required for data: 124860600
I0728 14:52:00.468873  5447 layer_factory.hpp:77] Creating layer pool2
I0728 14:52:00.468883  5447 net.cpp:91] Creating Layer pool2
I0728 14:52:00.468888  5447 net.cpp:425] pool2 <- conv2
I0728 14:52:00.468896  5447 net.cpp:399] pool2 -> pool2
I0728 14:52:00.468935  5447 net.cpp:141] Setting up pool2
I0728 14:52:00.468947  5447 net.cpp:148] Top shape: 25 256 13 13 (1081600)
I0728 14:52:00.468953  5447 net.cpp:156] Memory required for data: 129187000
I0728 14:52:00.468960  5447 layer_factory.hpp:77] Creating layer norm2
I0728 14:52:00.468969  5447 net.cpp:91] Creating Layer norm2
I0728 14:52:00.468976  5447 net.cpp:425] norm2 <- pool2
I0728 14:52:00.468983  5447 net.cpp:399] norm2 -> norm2
I0728 14:52:00.469017  5447 net.cpp:141] Setting up norm2
I0728 14:52:00.469034  5447 net.cpp:148] Top shape: 25 256 13 13 (1081600)
I0728 14:52:00.469041  5447 net.cpp:156] Memory required for data: 133513400
I0728 14:52:00.469048  5447 layer_factory.hpp:77] Creating layer conv3
I0728 14:52:00.469060  5447 net.cpp:91] Creating Layer conv3
I0728 14:52:00.469066  5447 net.cpp:425] conv3 <- norm2
I0728 14:52:00.469075  5447 net.cpp:399] conv3 -> conv3
I0728 14:52:00.497282  5447 net.cpp:141] Setting up conv3
I0728 14:52:00.497323  5447 net.cpp:148] Top shape: 25 384 13 13 (1622400)
I0728 14:52:00.497331  5447 net.cpp:156] Memory required for data: 140003000
I0728 14:52:00.497349  5447 layer_factory.hpp:77] Creating layer relu3
I0728 14:52:00.497361  5447 net.cpp:91] Creating Layer relu3
I0728 14:52:00.497370  5447 net.cpp:425] relu3 <- conv3
I0728 14:52:00.497388  5447 net.cpp:386] relu3 -> conv3 (in-place)
I0728 14:52:00.497400  5447 net.cpp:141] Setting up relu3
I0728 14:52:00.497408  5447 net.cpp:148] Top shape: 25 384 13 13 (1622400)
I0728 14:52:00.497414  5447 net.cpp:156] Memory required for data: 146492600
I0728 14:52:00.497419  5447 layer_factory.hpp:77] Creating layer conv4
I0728 14:52:00.497433  5447 net.cpp:91] Creating Layer conv4
I0728 14:52:00.497439  5447 net.cpp:425] conv4 <- conv3
I0728 14:52:00.497449  5447 net.cpp:399] conv4 -> conv4
I0728 14:52:00.518523  5447 net.cpp:141] Setting up conv4
I0728 14:52:00.518553  5447 net.cpp:148] Top shape: 25 384 13 13 (1622400)
I0728 14:52:00.518573  5447 net.cpp:156] Memory required for data: 152982200
I0728 14:52:00.518584  5447 layer_factory.hpp:77] Creating layer relu4
I0728 14:52:00.518597  5447 net.cpp:91] Creating Layer relu4
I0728 14:52:00.518617  5447 net.cpp:425] relu4 <- conv4
I0728 14:52:00.518627  5447 net.cpp:386] relu4 -> conv4 (in-place)
I0728 14:52:00.518640  5447 net.cpp:141] Setting up relu4
I0728 14:52:00.518647  5447 net.cpp:148] Top shape: 25 384 13 13 (1622400)
I0728 14:52:00.518653  5447 net.cpp:156] Memory required for data: 159471800
I0728 14:52:00.518659  5447 layer_factory.hpp:77] Creating layer conv5
I0728 14:52:00.518671  5447 net.cpp:91] Creating Layer conv5
I0728 14:52:00.518678  5447 net.cpp:425] conv5 <- conv4
I0728 14:52:00.518687  5447 net.cpp:399] conv5 -> conv5
I0728 14:52:00.532433  5447 net.cpp:141] Setting up conv5
I0728 14:52:00.532454  5447 net.cpp:148] Top shape: 25 256 13 13 (1081600)
I0728 14:52:00.532459  5447 net.cpp:156] Memory required for data: 163798200
I0728 14:52:00.532474  5447 layer_factory.hpp:77] Creating layer relu5
I0728 14:52:00.532483  5447 net.cpp:91] Creating Layer relu5
I0728 14:52:00.532502  5447 net.cpp:425] relu5 <- conv5
I0728 14:52:00.532511  5447 net.cpp:386] relu5 -> conv5 (in-place)
I0728 14:52:00.532521  5447 net.cpp:141] Setting up relu5
I0728 14:52:00.532528  5447 net.cpp:148] Top shape: 25 256 13 13 (1081600)
I0728 14:52:00.532552  5447 net.cpp:156] Memory required for data: 168124600
I0728 14:52:00.532557  5447 layer_factory.hpp:77] Creating layer pool5
I0728 14:52:00.532568  5447 net.cpp:91] Creating Layer pool5
I0728 14:52:00.532574  5447 net.cpp:425] pool5 <- conv5
I0728 14:52:00.532582  5447 net.cpp:399] pool5 -> pool5
I0728 14:52:00.532621  5447 net.cpp:141] Setting up pool5
I0728 14:52:00.532632  5447 net.cpp:148] Top shape: 25 256 6 6 (230400)
I0728 14:52:00.532655  5447 net.cpp:156] Memory required for data: 169046200
I0728 14:52:00.532661  5447 layer_factory.hpp:77] Creating layer fc6
I0728 14:52:00.532671  5447 net.cpp:91] Creating Layer fc6
I0728 14:52:00.532691  5447 net.cpp:425] fc6 <- pool5
I0728 14:52:00.532699  5447 net.cpp:399] fc6 -> fc6
I0728 14:52:01.751334  5447 net.cpp:141] Setting up fc6
I0728 14:52:01.751377  5447 net.cpp:148] Top shape: 25 4096 (102400)
I0728 14:52:01.751386  5447 net.cpp:156] Memory required for data: 169455800
I0728 14:52:01.751400  5447 layer_factory.hpp:77] Creating layer relu6
I0728 14:52:01.751415  5447 net.cpp:91] Creating Layer relu6
I0728 14:52:01.751422  5447 net.cpp:425] relu6 <- fc6
I0728 14:52:01.751433  5447 net.cpp:386] relu6 -> fc6 (in-place)
I0728 14:52:01.751456  5447 net.cpp:141] Setting up relu6
I0728 14:52:01.751474  5447 net.cpp:148] Top shape: 25 4096 (102400)
I0728 14:52:01.751482  5447 net.cpp:156] Memory required for data: 169865400
I0728 14:52:01.751487  5447 layer_factory.hpp:77] Creating layer drop6
I0728 14:52:01.751507  5447 net.cpp:91] Creating Layer drop6
I0728 14:52:01.751513  5447 net.cpp:425] drop6 <- fc6
I0728 14:52:01.751520  5447 net.cpp:386] drop6 -> fc6 (in-place)
I0728 14:52:01.751551  5447 net.cpp:141] Setting up drop6
I0728 14:52:01.751561  5447 net.cpp:148] Top shape: 25 4096 (102400)
I0728 14:52:01.751567  5447 net.cpp:156] Memory required for data: 170275000
I0728 14:52:01.751574  5447 layer_factory.hpp:77] Creating layer fc7
I0728 14:52:01.751583  5447 net.cpp:91] Creating Layer fc7
I0728 14:52:01.751590  5447 net.cpp:425] fc7 <- fc6
I0728 14:52:01.751598  5447 net.cpp:399] fc7 -> fc7
I0728 14:52:02.282615  5447 net.cpp:141] Setting up fc7
I0728 14:52:02.282660  5447 net.cpp:148] Top shape: 25 4096 (102400)
I0728 14:52:02.282668  5447 net.cpp:156] Memory required for data: 170684600
I0728 14:52:02.282682  5447 layer_factory.hpp:77] Creating layer relu7
I0728 14:52:02.282697  5447 net.cpp:91] Creating Layer relu7
I0728 14:52:02.282706  5447 net.cpp:425] relu7 <- fc7
I0728 14:52:02.282722  5447 net.cpp:386] relu7 -> fc7 (in-place)
I0728 14:52:02.282753  5447 net.cpp:141] Setting up relu7
I0728 14:52:02.282765  5447 net.cpp:148] Top shape: 25 4096 (102400)
I0728 14:52:02.282771  5447 net.cpp:156] Memory required for data: 171094200
I0728 14:52:02.282778  5447 layer_factory.hpp:77] Creating layer drop7
I0728 14:52:02.282788  5447 net.cpp:91] Creating Layer drop7
I0728 14:52:02.282793  5447 net.cpp:425] drop7 <- fc7
I0728 14:52:02.282801  5447 net.cpp:386] drop7 -> fc7 (in-place)
I0728 14:52:02.282845  5447 net.cpp:141] Setting up drop7
I0728 14:52:02.282867  5447 net.cpp:148] Top shape: 25 4096 (102400)
I0728 14:52:02.282894  5447 net.cpp:156] Memory required for data: 171503800
I0728 14:52:02.282902  5447 layer_factory.hpp:77] Creating layer fc8
I0728 14:52:02.282912  5447 net.cpp:91] Creating Layer fc8
I0728 14:52:02.282927  5447 net.cpp:425] fc8 <- fc7
I0728 14:52:02.282937  5447 net.cpp:399] fc8 -> fc8
I0728 14:52:02.283298  5447 net.cpp:141] Setting up fc8
I0728 14:52:02.283309  5447 net.cpp:148] Top shape: 25 2 (50)
I0728 14:52:02.283324  5447 net.cpp:156] Memory required for data: 171504000
I0728 14:52:02.283334  5447 layer_factory.hpp:77] Creating layer fc8_fc8_0_split
I0728 14:52:02.283344  5447 net.cpp:91] Creating Layer fc8_fc8_0_split
I0728 14:52:02.283359  5447 net.cpp:425] fc8_fc8_0_split <- fc8
I0728 14:52:02.283366  5447 net.cpp:399] fc8_fc8_0_split -> fc8_fc8_0_split_0
I0728 14:52:02.283376  5447 net.cpp:399] fc8_fc8_0_split -> fc8_fc8_0_split_1
I0728 14:52:02.283411  5447 net.cpp:141] Setting up fc8_fc8_0_split
I0728 14:52:02.283439  5447 net.cpp:148] Top shape: 25 2 (50)
I0728 14:52:02.283447  5447 net.cpp:148] Top shape: 25 2 (50)
I0728 14:52:02.283452  5447 net.cpp:156] Memory required for data: 171504400
I0728 14:52:02.283458  5447 layer_factory.hpp:77] Creating layer accuracy
I0728 14:52:02.283473  5447 net.cpp:91] Creating Layer accuracy
I0728 14:52:02.283480  5447 net.cpp:425] accuracy <- fc8_fc8_0_split_0
I0728 14:52:02.283488  5447 net.cpp:425] accuracy <- label_data_1_split_0
I0728 14:52:02.283496  5447 net.cpp:399] accuracy -> accuracy
…
