…
I0729 18:15:13.461402 17816 net.cpp:313] The NetState phase (0) differed from the phase (1) specified by a rule in layer accuracy
I0729 18:15:13.461947 17816 net.cpp:49] Initializing net from parameters: 
name: "CaffeNet"
state {
  phase: TRAIN
}
layer {
  name: "data"
  type: "Data"
  top: "data"
  top: "label"
  include {
    phase: TRAIN
  }
  transform_param {
    mirror: true
    crop_size: 227
    mean_file: "/home/manush/deeplearning-image-classifier/input/mean.binaryproto"
  }
  data_param {
    source: "/home/manush/deeplearning-image-classifier/input/train_lmdb"
    batch_size: 64
    backend: LMDB
  }
}
layer {
  name: "conv1"
  type: "Convolution"
  bottom: "data"
  top: "conv1"
  param {
    lr_mult: 1
    decay_mult: 1
  }
  param {
    lr_mult: 2
    decay_mult: 0
  }
  convolution_param {
    num_output: 96
    kernel_size: 11
    stride: 4
    weight_filler {
      type: "gaussian"
      std: 0.01
    }
    bias_filler {
      type: "constant"
      value: 0
    }
  }
}
layer {
  name: "relu1"
  type: "ReLU"
  bottom: "conv1"
  top: "conv1"
}
layer {
  name: "pool1"
  type: "Pooling"
  bottom: "conv1"
  top: "pool1"
  pooling_param {
    pool: MAX
    kernel_size: 3
    stride: 2
  }
}
layer {
  name: "norm1"
  type: "LRN"
  bottom: "pool1"
  top: "norm1"
  lrn_param {
    local_size: 5
    alpha: 0.0001
    beta: 0.75
  }
}
layer {
  name: "conv2"
  type: "Convolution"
  bottom: "norm1"
  top: "conv2"
  param {
    lr_mult: 1
    decay_mult: 1
  }
  param {
    lr_mult: 2
    decay_mult: 0
  }
  convolution_param {
    num_output: 256
    pad: 2
    kernel_size: 5
    group: 2
    weight_filler {
      type: "gaussian"
      std: 0.01
    }
    bias_filler {
      type: "constant"
      value: 1
    }
  }
}
layer {
  name: "relu2"
  type: "ReLU"
  bottom: "conv2"
  top: "conv2"
}
layer {
  name: "pool2"
  type: "Pooling"
  bottom: "conv2"
  top: "pool2"
  pooling_param {
    pool: MAX
    kernel_size: 3
    stride: 2
  }
}
layer {
  name: "norm2"
  type: "LRN"
  bottom: "pool2"
  top: "norm2"
  lrn_param {
    local_size: 5
    alpha: 0.0001
    beta: 0.75
  }
}
layer {
  name: "conv3"
  type: "Convolution"
  bottom: "norm2"
  top: "conv3"
  param {
    lr_mult: 1
    decay_mult: 1
  }
  param {
    lr_mult: 2
    decay_mult: 0
  }
  convolution_param {
    num_output: 384
    pad: 1
    kernel_size: 3
    weight_filler {
      type: "gaussian"
      std: 0.01
    }
    bias_filler {
      type: "constant"
      value: 0
    }
  }
}
layer {
  name: "relu3"
  type: "ReLU"
  bottom: "conv3"
  top: "conv3"
}
layer {
  name: "conv4"
  type: "Convolution"
  bottom: "conv3"
  top: "conv4"
  param {
    lr_mult: 1
    decay_mult: 1
  }
  param {
    lr_mult: 2
    decay_mult: 0
  }
  convolution_param {
    num_output: 384
    pad: 1
    kernel_size: 3
    group: 2
    weight_filler {
      type: "gaussian"
      std: 0.01
    }
    bias_filler {
      type: "constant"
      value: 1
    }
  }
}
layer {
  name: "relu4"
  type: "ReLU"
  bottom: "conv4"
  top: "conv4"
}
layer {
  name: "conv5"
  type: "Convolution"
  bottom: "conv4"
  top: "conv5"
  param {
    lr_mult: 1
    decay_mult: 1
  }
  param {
    lr_mult: 2
    decay_mult: 0
  }
  convolution_param {
    num_output: 256
    pad: 1
    kernel_size: 3
    group: 2
    weight_filler {
      type: "gaussian"
      std: 0.01
    }
    bias_filler {
      type: "constant"
      value: 1
    }
  }
}
layer {
  name: "relu5"
  type: "ReLU"
  bottom: "conv5"
  top: "conv5"
}
layer {
  name: "pool5"
  type: "Pooling"
  bottom: "conv5"
  top: "pool5"
  pooling_param {
    pool: MAX
    kernel_size: 3
    stride: 2
  }
}
layer {
  name: "fc6"
  type: "InnerProduct"
  bottom: "pool5"
  top: "fc6"
  param {
    lr_mult: 1
    decay_mult: 1
  }
  param {
    lr_mult: 2
    decay_mult: 0
  }
  inner_product_param {
    num_output: 4096
    weight_filler {
      type: "gaussian"
      std: 0.005
    }
    bias_filler {
      type: "constant"
      value: 1
    }
  }
}
layer {
  name: "relu6"
  type: "ReLU"
  bottom: "fc6"
  top: "fc6"
}
layer {
  name: "drop6"
  type: "Dropout"
  bottom: "fc6"
  top: "fc6"
  dropout_param {
    dropout_ratio: 0.5
  }
}
layer {
  name: "fc7"
  type: "InnerProduct"
  bottom: "fc6"
  top: "fc7"
  param {
    lr_mult: 1
    decay_mult: 1
  }
  param {
    lr_mult: 2
    decay_mult: 0
  }
  inner_product_param {
    num_output: 4096
    weight_filler {
      type: "gaussian"
      std: 0.005
    }
    bias_filler {
      type: "constant"
      value: 1
    }
  }
}
layer {
  name: "relu7"
  type: "ReLU"
  bottom: "fc7"
  top: "fc7"
}
layer {
  name: "drop7"
  type: "Dropout"
  bottom: "fc7"
  top: "fc7"
  dropout_param {
    dropout_ratio: 0.5
  }
}
layer {
  name: "fc8-cats-dogs"
  type: "InnerProduct"
  bottom: "fc7"
  top: "fc8-cats-dogs"
  param {
    lr_mult: 1
    decay_mult: 1
  }
  param {
    lr_mult: 2
    decay_mult: 0
  }
  inner_product_param {
    num_output: 2
    weight_filler {
      type: "gaussian"
      std: 0.01
    }
    bias_filler {
      type: "constant"
      value: 0
    }
  }
}
layer {
  name: "loss"
  type: "SoftmaxWithLoss"
  bottom: "fc8-cats-dogs"
  bottom: "label"
  top: "loss"
}
I0729 18:15:13.462281 17816 layer_factory.hpp:77] Creating layer data
I0729 18:15:13.463476 17816 net.cpp:91] Creating Layer data
I0729 18:15:13.463542 17816 net.cpp:399] data -> data
I0729 18:15:13.463614 17816 net.cpp:399] data -> label
I0729 18:15:13.463654 17816 data_transformer.cpp:25] Loading mean file from: /home/manush/deeplearning-image-classifier/input/mean.binaryproto
I0729 18:15:13.473568 17822 db_lmdb.cpp:35] Opened lmdb /home/manush/deeplearning-image-classifier/input/train_lmdb
I0729 18:15:13.502698 17816 data_layer.cpp:41] output data size: 64,3,227,227
I0729 18:15:13.566813 17816 net.cpp:141] Setting up data
I0729 18:15:13.566892 17816 net.cpp:148] Top shape: 64 3 227 227 (9893568)
I0729 18:15:13.566903 17816 net.cpp:148] Top shape: 64 (64)
I0729 18:15:13.566910 17816 net.cpp:156] Memory required for data: 39574528
I0729 18:15:13.566923 17816 layer_factory.hpp:77] Creating layer conv1
I0729 18:15:13.566948 17816 net.cpp:91] Creating Layer conv1
I0729 18:15:13.566964 17816 net.cpp:425] conv1 <- data
I0729 18:15:13.566983 17816 net.cpp:399] conv1 -> conv1
I0729 18:15:13.574925 17816 net.cpp:141] Setting up conv1
I0729 18:15:13.574955 17816 net.cpp:148] Top shape: 64 96 55 55 (18585600)
I0729 18:15:13.574962 17816 net.cpp:156] Memory required for data: 113916928
I0729 18:15:13.575001 17816 layer_factory.hpp:77] Creating layer relu1
I0729 18:15:13.575016 17816 net.cpp:91] Creating Layer relu1
I0729 18:15:13.575023 17816 net.cpp:425] relu1 <- conv1
I0729 18:15:13.575032 17816 net.cpp:386] relu1 -> conv1 (in-place)
I0729 18:15:13.575047 17816 net.cpp:141] Setting up relu1
I0729 18:15:13.575054 17816 net.cpp:148] Top shape: 64 96 55 55 (18585600)
I0729 18:15:13.575060 17816 net.cpp:156] Memory required for data: 188259328
I0729 18:15:13.575065 17816 layer_factory.hpp:77] Creating layer pool1
I0729 18:15:13.575074 17816 net.cpp:91] Creating Layer pool1
I0729 18:15:13.575080 17816 net.cpp:425] pool1 <- conv1
I0729 18:15:13.575088 17816 net.cpp:399] pool1 -> pool1
I0729 18:15:13.575137 17816 net.cpp:141] Setting up pool1
I0729 18:15:13.575162 17816 net.cpp:148] Top shape: 64 96 27 27 (4478976)
I0729 18:15:13.575201 17816 net.cpp:156] Memory required for data: 206175232
I0729 18:15:13.575209 17816 layer_factory.hpp:77] Creating layer norm1
I0729 18:15:13.575220 17816 net.cpp:91] Creating Layer norm1
I0729 18:15:13.575227 17816 net.cpp:425] norm1 <- pool1
I0729 18:15:13.575234 17816 net.cpp:399] norm1 -> norm1
I0729 18:15:13.575274 17816 net.cpp:141] Setting up norm1
I0729 18:15:13.575285 17816 net.cpp:148] Top shape: 64 96 27 27 (4478976)
I0729 18:15:13.575291 17816 net.cpp:156] Memory required for data: 224091136
I0729 18:15:13.575297 17816 layer_factory.hpp:77] Creating layer conv2
I0729 18:15:13.575310 17816 net.cpp:91] Creating Layer conv2
I0729 18:15:13.575316 17816 net.cpp:425] conv2 <- norm1
I0729 18:15:13.575325 17816 net.cpp:399] conv2 -> conv2
I0729 18:15:13.586958 17816 net.cpp:141] Setting up conv2
I0729 18:15:13.586990 17816 net.cpp:148] Top shape: 64 256 27 27 (11943936)
I0729 18:15:13.586997 17816 net.cpp:156] Memory required for data: 271866880
I0729 18:15:13.587028 17816 layer_factory.hpp:77] Creating layer relu2
I0729 18:15:13.587043 17816 net.cpp:91] Creating Layer relu2
I0729 18:15:13.587049 17816 net.cpp:425] relu2 <- conv2
I0729 18:15:13.587059 17816 net.cpp:386] relu2 -> conv2 (in-place)
I0729 18:15:13.587072 17816 net.cpp:141] Setting up relu2
I0729 18:15:13.587080 17816 net.cpp:148] Top shape: 64 256 27 27 (11943936)
I0729 18:15:13.587085 17816 net.cpp:156] Memory required for data: 319642624
I0729 18:15:13.587091 17816 layer_factory.hpp:77] Creating layer pool2
I0729 18:15:13.587100 17816 net.cpp:91] Creating Layer pool2
I0729 18:15:13.587106 17816 net.cpp:425] pool2 <- conv2
I0729 18:15:13.587115 17816 net.cpp:399] pool2 -> pool2
I0729 18:15:13.587154 17816 net.cpp:141] Setting up pool2
I0729 18:15:13.587165 17816 net.cpp:148] Top shape: 64 256 13 13 (2768896)
I0729 18:15:13.587172 17816 net.cpp:156] Memory required for data: 330718208
I0729 18:15:13.587178 17816 layer_factory.hpp:77] Creating layer norm2
I0729 18:15:13.587189 17816 net.cpp:91] Creating Layer norm2
I0729 18:15:13.587195 17816 net.cpp:425] norm2 <- pool2
I0729 18:15:13.587203 17816 net.cpp:399] norm2 -> norm2
I0729 18:15:13.587234 17816 net.cpp:141] Setting up norm2
I0729 18:15:13.587245 17816 net.cpp:148] Top shape: 64 256 13 13 (2768896)
I0729 18:15:13.587251 17816 net.cpp:156] Memory required for data: 341793792
I0729 18:15:13.587257 17816 layer_factory.hpp:77] Creating layer conv3
I0729 18:15:13.587270 17816 net.cpp:91] Creating Layer conv3
I0729 18:15:13.587276 17816 net.cpp:425] conv3 <- norm2
I0729 18:15:13.587285 17816 net.cpp:399] conv3 -> conv3
I0729 18:15:13.590651 17823 blocking_queue.cpp:50] Waiting for data
I0729 18:15:13.613451 17816 net.cpp:141] Setting up conv3
I0729 18:15:13.613494 17816 net.cpp:148] Top shape: 64 384 13 13 (4153344)
I0729 18:15:13.613502 17816 net.cpp:156] Memory required for data: 358407168
I0729 18:15:13.613540 17816 layer_factory.hpp:77] Creating layer relu3
I0729 18:15:13.613554 17816 net.cpp:91] Creating Layer relu3
I0729 18:15:13.613561 17816 net.cpp:425] relu3 <- conv3
I0729 18:15:13.613571 17816 net.cpp:386] relu3 -> conv3 (in-place)
I0729 18:15:13.613584 17816 net.cpp:141] Setting up relu3
I0729 18:15:13.613590 17816 net.cpp:148] Top shape: 64 384 13 13 (4153344)
I0729 18:15:13.613596 17816 net.cpp:156] Memory required for data: 375020544
I0729 18:15:13.613602 17816 layer_factory.hpp:77] Creating layer conv4
I0729 18:15:13.613615 17816 net.cpp:91] Creating Layer conv4
I0729 18:15:13.613621 17816 net.cpp:425] conv4 <- conv3
I0729 18:15:13.613631 17816 net.cpp:399] conv4 -> conv4
I0729 18:15:13.633384 17816 net.cpp:141] Setting up conv4
I0729 18:15:13.633414 17816 net.cpp:148] Top shape: 64 384 13 13 (4153344)
I0729 18:15:13.633421 17816 net.cpp:156] Memory required for data: 391633920
I0729 18:15:13.633435 17816 layer_factory.hpp:77] Creating layer relu4
I0729 18:15:13.633447 17816 net.cpp:91] Creating Layer relu4
I0729 18:15:13.633455 17816 net.cpp:425] relu4 <- conv4
I0729 18:15:13.633466 17816 net.cpp:386] relu4 -> conv4 (in-place)
I0729 18:15:13.633477 17816 net.cpp:141] Setting up relu4
I0729 18:15:13.633507 17816 net.cpp:148] Top shape: 64 384 13 13 (4153344)
I0729 18:15:13.633520 17816 net.cpp:156] Memory required for data: 408247296
I0729 18:15:13.633532 17816 layer_factory.hpp:77] Creating layer conv5
I0729 18:15:13.633553 17816 net.cpp:91] Creating Layer conv5
I0729 18:15:13.633566 17816 net.cpp:425] conv5 <- conv4
I0729 18:15:13.633584 17816 net.cpp:399] conv5 -> conv5
I0729 18:15:13.646793 17816 net.cpp:141] Setting up conv5
I0729 18:15:13.646826 17816 net.cpp:148] Top shape: 64 256 13 13 (2768896)
I0729 18:15:13.646837 17816 net.cpp:156] Memory required for data: 419322880
I0729 18:15:13.646877 17816 layer_factory.hpp:77] Creating layer relu5
I0729 18:15:13.646898 17816 net.cpp:91] Creating Layer relu5
I0729 18:15:13.646913 17816 net.cpp:425] relu5 <- conv5
I0729 18:15:13.646941 17816 net.cpp:386] relu5 -> conv5 (in-place)
I0729 18:15:13.646967 17816 net.cpp:141] Setting up relu5
I0729 18:15:13.646984 17816 net.cpp:148] Top shape: 64 256 13 13 (2768896)
I0729 18:15:13.646996 17816 net.cpp:156] Memory required for data: 430398464
I0729 18:15:13.647007 17816 layer_factory.hpp:77] Creating layer pool5
I0729 18:15:13.647023 17816 net.cpp:91] Creating Layer pool5
I0729 18:15:13.647035 17816 net.cpp:425] pool5 <- conv5
I0729 18:15:13.647052 17816 net.cpp:399] pool5 -> pool5
I0729 18:15:13.647100 17816 net.cpp:141] Setting up pool5
I0729 18:15:13.647116 17816 net.cpp:148] Top shape: 64 256 6 6 (589824)
I0729 18:15:13.647127 17816 net.cpp:156] Memory required for data: 432757760
I0729 18:15:13.647140 17816 layer_factory.hpp:77] Creating layer fc6
I0729 18:15:13.647159 17816 net.cpp:91] Creating Layer fc6
I0729 18:15:13.647171 17816 net.cpp:425] fc6 <- pool5
I0729 18:15:13.647200 17816 net.cpp:399] fc6 -> fc6
I0729 18:15:14.728081 17816 net.cpp:141] Setting up fc6
I0729 18:15:14.728121 17816 net.cpp:148] Top shape: 64 4096 (262144)
I0729 18:15:14.728132 17816 net.cpp:156] Memory required for data: 433806336
I0729 18:15:14.728152 17816 layer_factory.hpp:77] Creating layer relu6
I0729 18:15:14.728183 17816 net.cpp:91] Creating Layer relu6
I0729 18:15:14.728201 17816 net.cpp:425] relu6 <- fc6
I0729 18:15:14.728212 17816 net.cpp:386] relu6 -> fc6 (in-place)
I0729 18:15:14.728224 17816 net.cpp:141] Setting up relu6
I0729 18:15:14.728232 17816 net.cpp:148] Top shape: 64 4096 (262144)
I0729 18:15:14.728237 17816 net.cpp:156] Memory required for data: 434854912
I0729 18:15:14.728243 17816 layer_factory.hpp:77] Creating layer drop6
I0729 18:15:14.728256 17816 net.cpp:91] Creating Layer drop6
I0729 18:15:14.728262 17816 net.cpp:425] drop6 <- fc6
I0729 18:15:14.728271 17816 net.cpp:386] drop6 -> fc6 (in-place)
I0729 18:15:14.728299 17816 net.cpp:141] Setting up drop6
I0729 18:15:14.728322 17816 net.cpp:148] Top shape: 64 4096 (262144)
I0729 18:15:14.728327 17816 net.cpp:156] Memory required for data: 435903488
I0729 18:15:14.728333 17816 layer_factory.hpp:77] Creating layer fc7
I0729 18:15:14.728344 17816 net.cpp:91] Creating Layer fc7
I0729 18:15:14.728359 17816 net.cpp:425] fc7 <- fc6
I0729 18:15:14.728368 17816 net.cpp:399] fc7 -> fc7
I0729 18:15:15.203284 17816 net.cpp:141] Setting up fc7
I0729 18:15:15.203320 17816 net.cpp:148] Top shape: 64 4096 (262144)
I0729 18:15:15.203336 17816 net.cpp:156] Memory required for data: 436952064
I0729 18:15:15.203349 17816 layer_factory.hpp:77] Creating layer relu7
I0729 18:15:15.203363 17816 net.cpp:91] Creating Layer relu7
I0729 18:15:15.203371 17816 net.cpp:425] relu7 <- fc7
I0729 18:15:15.203389 17816 net.cpp:386] relu7 -> fc7 (in-place)
I0729 18:15:15.203402 17816 net.cpp:141] Setting up relu7
I0729 18:15:15.203411 17816 net.cpp:148] Top shape: 64 4096 (262144)
I0729 18:15:15.203418 17816 net.cpp:156] Memory required for data: 438000640
I0729 18:15:15.203423 17816 layer_factory.hpp:77] Creating layer drop7
I0729 18:15:15.203433 17816 net.cpp:91] Creating Layer drop7
I0729 18:15:15.203438 17816 net.cpp:425] drop7 <- fc7
I0729 18:15:15.203446 17816 net.cpp:386] drop7 -> fc7 (in-place)
I0729 18:15:15.203470 17816 net.cpp:141] Setting up drop7
I0729 18:15:15.203480 17816 net.cpp:148] Top shape: 64 4096 (262144)
I0729 18:15:15.203507 17816 net.cpp:156] Memory required for data: 439049216
I0729 18:15:15.203516 17816 layer_factory.hpp:77] Creating layer fc8-cats-dogs
I0729 18:15:15.203526 17816 net.cpp:91] Creating Layer fc8-cats-dogs
I0729 18:15:15.203531 17816 net.cpp:425] fc8-cats-dogs <- fc7
I0729 18:15:15.203541 17816 net.cpp:399] fc8-cats-dogs -> fc8-cats-dogs
I0729 18:15:15.204293 17816 net.cpp:141] Setting up fc8-cats-dogs
I0729 18:15:15.204308 17816 net.cpp:148] Top shape: 64 2 (128)
I0729 18:15:15.204313 17816 net.cpp:156] Memory required for data: 439049728
I0729 18:15:15.204322 17816 layer_factory.hpp:77] Creating layer loss
I0729 18:15:15.204336 17816 net.cpp:91] Creating Layer loss
I0729 18:15:15.204351 17816 net.cpp:425] loss <- fc8-cats-dogs
I0729 18:15:15.204360 17816 net.cpp:425] loss <- label
I0729 18:15:15.204370 17816 net.cpp:399] loss -> loss
I0729 18:15:15.204390 17816 layer_factory.hpp:77] Creating layer loss
…
I0729 18:15:15.205430 17816 net.cpp:313] The NetState phase (1) differed from the phase (0) specified by a rule in layer data
I0729 18:15:15.205627 17816 net.cpp:49] Initializing net from parameters: 
name: "CaffeNet"
state {
  phase: TEST
}
layer {
  name: "data"
  type: "Data"
  top: "data"
  top: "label"
  include {
    phase: TEST
  }
  transform_param {
    mirror: false
    crop_size: 227
    mean_file: "/home/manush/deeplearning-image-classifier/input/mean.binaryproto"
  }
  data_param {
    source: "/home/manush/deeplearning-image-classifier/input/validation_lmdb"
    batch_size: 25
    backend: LMDB
  }
}
layer {
  name: "conv1"
  type: "Convolution"
  bottom: "data"
  top: "conv1"
  param {
    lr_mult: 1
    decay_mult: 1
  }
  param {
    lr_mult: 2
    decay_mult: 0
  }
  convolution_param {
    num_output: 96
    kernel_size: 11
    stride: 4
    weight_filler {
      type: "gaussian"
      std: 0.01
    }
    bias_filler {
      type: "constant"
      value: 0
    }
  }
}
layer {
  name: "relu1"
  type: "ReLU"
  bottom: "conv1"
  top: "conv1"
}
layer {
  name: "pool1"
  type: "Pooling"
  bottom: "conv1"
  top: "pool1"
  pooling_param {
    pool: MAX
    kernel_size: 3
    stride: 2
  }
}
layer {
  name: "norm1"
  type: "LRN"
  bottom: "pool1"
  top: "norm1"
  lrn_param {
    local_size: 5
    alpha: 0.0001
    beta: 0.75
  }
}
layer {
  name: "conv2"
  type: "Convolution"
  bottom: "norm1"
  top: "conv2"
  param {
    lr_mult: 1
    decay_mult: 1
  }
  param {
    lr_mult: 2
    decay_mult: 0
  }
  convolution_param {
    num_output: 256
    pad: 2
    kernel_size: 5
    group: 2
    weight_filler {
      type: "gaussian"
      std: 0.01
    }
    bias_filler {
      type: "constant"
      value: 1
    }
  }
}
layer {
  name: "relu2"
  type: "ReLU"
  bottom: "conv2"
  top: "conv2"
}
layer {
  name: "pool2"
  type: "Pooling"
  bottom: "conv2"
  top: "pool2"
  pooling_param {
    pool: MAX
    kernel_size: 3
    stride: 2
  }
}
layer {
  name: "norm2"
  type: "LRN"
  bottom: "pool2"
  top: "norm2"
  lrn_param {
    local_size: 5
    alpha: 0.0001
    beta: 0.75
  }
}
layer {
  name: "conv3"
  type: "Convolution"
  bottom: "norm2"
  top: "conv3"
  param {
    lr_mult: 1
    decay_mult: 1
  }
  param {
    lr_mult: 2
    decay_mult: 0
  }
  convolution_param {
    num_output: 384
    pad: 1
    kernel_size: 3
    weight_filler {
      type: "gaussian"
      std: 0.01
    }
    bias_filler {
      type: "constant"
      value: 0
    }
  }
}
layer {
  name: "relu3"
  type: "ReLU"
  bottom: "conv3"
  top: "conv3"
}
layer {
  name: "conv4"
  type: "Convolution"
  bottom: "conv3"
  top: "conv4"
  param {
    lr_mult: 1
    decay_mult: 1
  }
  param {
    lr_mult: 2
    decay_mult: 0
  }
  convolution_param {
    num_output: 384
    pad: 1
    kernel_size: 3
    group: 2
    weight_filler {
      type: "gaussian"
      std: 0.01
    }
    bias_filler {
      type: "constant"
      value: 1
    }
  }
}
layer {
  name: "relu4"
  type: "ReLU"
  bottom: "conv4"
  top: "conv4"
}
layer {
  name: "conv5"
  type: "Convolution"
  bottom: "conv4"
  top: "conv5"
  param {
    lr_mult: 1
    decay_mult: 1
  }
  param {
    lr_mult: 2
    decay_mult: 0
  }
  convolution_param {
    num_output: 256
    pad: 1
    kernel_size: 3
    group: 2
    weight_filler {
      type: "gaussian"
      std: 0.01
    }
    bias_filler {
      type: "constant"
      value: 1
    }
  }
}
layer {
  name: "relu5"
  type: "ReLU"
  bottom: "conv5"
  top: "conv5"
}
layer {
  name: "pool5"
  type: "Pooling"
  bottom: "conv5"
  top: "pool5"
  pooling_param {
    pool: MAX
    kernel_size: 3
    stride: 2
  }
}
layer {
  name: "fc6"
  type: "InnerProduct"
  bottom: "pool5"
  top: "fc6"
  param {
    lr_mult: 1
    decay_mult: 1
  }
  param {
    lr_mult: 2
    decay_mult: 0
  }
  inner_product_param {
    num_output: 4096
    weight_filler {
      type: "gaussian"
      std: 0.005
    }
    bias_filler {
      type: "constant"
      value: 1
    }
  }
}
layer {
  name: "relu6"
  type: "ReLU"
  bottom: "fc6"
  top: "fc6"
}
layer {
  name: "drop6"
  type: "Dropout"
  bottom: "fc6"
  top: "fc6"
  dropout_param {
    dropout_ratio: 0.5
  }
}
layer {
  name: "fc7"
  type: "InnerProduct"
  bottom: "fc6"
  top: "fc7"
  param {
    lr_mult: 1
    decay_mult: 1
  }
  param {
    lr_mult: 2
    decay_mult: 0
  }
  inner_product_param {
    num_output: 4096
    weight_filler {
      type: "gaussian"
      std: 0.005
    }
    bias_filler {
      type: "constant"
      value: 1
    }
  }
}
layer {
  name: "relu7"
  type: "ReLU"
  bottom: "fc7"
  top: "fc7"
}
layer {
  name: "drop7"
  type: "Dropout"
  bottom: "fc7"
  top: "fc7"
  dropout_param {
    dropout_ratio: 0.5
  }
}
layer {
  name: "fc8-cats-dogs"
  type: "InnerProduct"
  bottom: "fc7"
  top: "fc8-cats-dogs"
  param {
    lr_mult: 1
    decay_mult: 1
  }
  param {
    lr_mult: 2
    decay_mult: 0
  }
  inner_product_param {
    num_output: 2
    weight_filler {
      type: "gaussian"
      std: 0.01
    }
    bias_filler {
      type: "constant"
      value: 0
    }
  }
}
layer {
  name: "accuracy"
  type: "Accuracy"
  bottom: "fc8-cats-dogs"
  bottom: "label"
  top: "accuracy"
  include {
    phase: TEST
  }
}
layer {
  name: "loss"
  type: "SoftmaxWithLoss"
  bottom: "fc8-cats-dogs"
  bottom: "label"
  top: "loss"
}
I0729 18:15:15.205749 17816 layer_factory.hpp:77] Creating layer data
I0729 18:15:15.205832 17816 net.cpp:91] Creating Layer data
I0729 18:15:15.205843 17816 net.cpp:399] data -> data
I0729 18:15:15.205855 17816 net.cpp:399] data -> label
I0729 18:15:15.205868 17816 data_transformer.cpp:25] Loading mean file from: /home/manush/deeplearning-image-classifier/input/mean.binaryproto
I0729 18:15:15.243341 17826 db_lmdb.cpp:35] Opened lmdb /home/manush/deeplearning-image-classifier/input/validation_lmdb
I0729 18:15:15.265638 17816 data_layer.cpp:41] output data size: 25,3,227,227
I0729 18:15:15.295435 17816 net.cpp:141] Setting up data
I0729 18:15:15.295472 17816 net.cpp:148] Top shape: 25 3 227 227 (3864675)
I0729 18:15:15.295481 17816 net.cpp:148] Top shape: 25 (25)
I0729 18:15:15.295487 17816 net.cpp:156] Memory required for data: 15458800
I0729 18:15:15.295496 17816 layer_factory.hpp:77] Creating layer label_data_1_split
I0729 18:15:15.295514 17816 net.cpp:91] Creating Layer label_data_1_split
I0729 18:15:15.295524 17816 net.cpp:425] label_data_1_split <- label
I0729 18:15:15.295536 17816 net.cpp:399] label_data_1_split -> label_data_1_split_0
I0729 18:15:15.295548 17816 net.cpp:399] label_data_1_split -> label_data_1_split_1
I0729 18:15:15.295644 17816 net.cpp:141] Setting up label_data_1_split
I0729 18:15:15.295657 17816 net.cpp:148] Top shape: 25 (25)
I0729 18:15:15.295665 17816 net.cpp:148] Top shape: 25 (25)
I0729 18:15:15.295670 17816 net.cpp:156] Memory required for data: 15459000
I0729 18:15:15.295676 17816 layer_factory.hpp:77] Creating layer conv1
I0729 18:15:15.295692 17816 net.cpp:91] Creating Layer conv1
I0729 18:15:15.295699 17816 net.cpp:425] conv1 <- data
I0729 18:15:15.295707 17816 net.cpp:399] conv1 -> conv1
I0729 18:15:15.298930 17816 net.cpp:141] Setting up conv1
I0729 18:15:15.298954 17816 net.cpp:148] Top shape: 25 96 55 55 (7260000)
I0729 18:15:15.298960 17816 net.cpp:156] Memory required for data: 44499000
I0729 18:15:15.298975 17816 layer_factory.hpp:77] Creating layer relu1
I0729 18:15:15.298986 17816 net.cpp:91] Creating Layer relu1
I0729 18:15:15.298992 17816 net.cpp:425] relu1 <- conv1
I0729 18:15:15.299001 17816 net.cpp:386] relu1 -> conv1 (in-place)
I0729 18:15:15.299011 17816 net.cpp:141] Setting up relu1
I0729 18:15:15.299018 17816 net.cpp:148] Top shape: 25 96 55 55 (7260000)
I0729 18:15:15.299024 17816 net.cpp:156] Memory required for data: 73539000
I0729 18:15:15.299031 17816 layer_factory.hpp:77] Creating layer pool1
I0729 18:15:15.299039 17816 net.cpp:91] Creating Layer pool1
I0729 18:15:15.299046 17816 net.cpp:425] pool1 <- conv1
I0729 18:15:15.299053 17816 net.cpp:399] pool1 -> pool1
I0729 18:15:15.299091 17816 net.cpp:141] Setting up pool1
I0729 18:15:15.299100 17816 net.cpp:148] Top shape: 25 96 27 27 (1749600)
I0729 18:15:15.299106 17816 net.cpp:156] Memory required for data: 80537400
I0729 18:15:15.299113 17816 layer_factory.hpp:77] Creating layer norm1
I0729 18:15:15.299123 17816 net.cpp:91] Creating Layer norm1
I0729 18:15:15.299129 17816 net.cpp:425] norm1 <- pool1
I0729 18:15:15.299136 17816 net.cpp:399] norm1 -> norm1
I0729 18:15:15.299168 17816 net.cpp:141] Setting up norm1
I0729 18:15:15.299180 17816 net.cpp:148] Top shape: 25 96 27 27 (1749600)
I0729 18:15:15.299185 17816 net.cpp:156] Memory required for data: 87535800
I0729 18:15:15.299191 17816 layer_factory.hpp:77] Creating layer conv2
I0729 18:15:15.299203 17816 net.cpp:91] Creating Layer conv2
I0729 18:15:15.299209 17816 net.cpp:425] conv2 <- norm1
I0729 18:15:15.299218 17816 net.cpp:399] conv2 -> conv2
I0729 18:15:15.308888 17816 net.cpp:141] Setting up conv2
I0729 18:15:15.308928 17816 net.cpp:148] Top shape: 25 256 27 27 (4665600)
I0729 18:15:15.308936 17816 net.cpp:156] Memory required for data: 106198200
I0729 18:15:15.308954 17816 layer_factory.hpp:77] Creating layer relu2
I0729 18:15:15.308966 17816 net.cpp:91] Creating Layer relu2
I0729 18:15:15.308974 17816 net.cpp:425] relu2 <- conv2
I0729 18:15:15.308984 17816 net.cpp:386] relu2 -> conv2 (in-place)
I0729 18:15:15.308995 17816 net.cpp:141] Setting up relu2
I0729 18:15:15.309002 17816 net.cpp:148] Top shape: 25 256 27 27 (4665600)
I0729 18:15:15.309007 17816 net.cpp:156] Memory required for data: 124860600
I0729 18:15:15.309013 17816 layer_factory.hpp:77] Creating layer pool2
I0729 18:15:15.309025 17816 net.cpp:91] Creating Layer pool2
I0729 18:15:15.309046 17816 net.cpp:425] pool2 <- conv2
I0729 18:15:15.309056 17816 net.cpp:399] pool2 -> pool2
I0729 18:15:15.309097 17816 net.cpp:141] Setting up pool2
I0729 18:15:15.309108 17816 net.cpp:148] Top shape: 25 256 13 13 (1081600)
I0729 18:15:15.309114 17816 net.cpp:156] Memory required for data: 129187000
I0729 18:15:15.309120 17816 layer_factory.hpp:77] Creating layer norm2
I0729 18:15:15.309130 17816 net.cpp:91] Creating Layer norm2
I0729 18:15:15.309136 17816 net.cpp:425] norm2 <- pool2
I0729 18:15:15.309144 17816 net.cpp:399] norm2 -> norm2
I0729 18:15:15.309176 17816 net.cpp:141] Setting up norm2
I0729 18:15:15.309187 17816 net.cpp:148] Top shape: 25 256 13 13 (1081600)
I0729 18:15:15.309193 17816 net.cpp:156] Memory required for data: 133513400
I0729 18:15:15.309200 17816 layer_factory.hpp:77] Creating layer conv3
I0729 18:15:15.309211 17816 net.cpp:91] Creating Layer conv3
I0729 18:15:15.309217 17816 net.cpp:425] conv3 <- norm2
I0729 18:15:15.309226 17816 net.cpp:399] conv3 -> conv3
I0729 18:15:15.335759 17816 net.cpp:141] Setting up conv3
I0729 18:15:15.335808 17816 net.cpp:148] Top shape: 25 384 13 13 (1622400)
I0729 18:15:15.335816 17816 net.cpp:156] Memory required for data: 140003000
I0729 18:15:15.335834 17816 layer_factory.hpp:77] Creating layer relu3
I0729 18:15:15.335846 17816 net.cpp:91] Creating Layer relu3
I0729 18:15:15.335853 17816 net.cpp:425] relu3 <- conv3
I0729 18:15:15.335863 17816 net.cpp:386] relu3 -> conv3 (in-place)
I0729 18:15:15.335876 17816 net.cpp:141] Setting up relu3
I0729 18:15:15.335883 17816 net.cpp:148] Top shape: 25 384 13 13 (1622400)
I0729 18:15:15.335889 17816 net.cpp:156] Memory required for data: 146492600
I0729 18:15:15.335894 17816 layer_factory.hpp:77] Creating layer conv4
I0729 18:15:15.335907 17816 net.cpp:91] Creating Layer conv4
I0729 18:15:15.335913 17816 net.cpp:425] conv4 <- conv3
I0729 18:15:15.335922 17816 net.cpp:399] conv4 -> conv4
I0729 18:15:15.355428 17816 net.cpp:141] Setting up conv4
I0729 18:15:15.355456 17816 net.cpp:148] Top shape: 25 384 13 13 (1622400)
I0729 18:15:15.355473 17816 net.cpp:156] Memory required for data: 152982200
I0729 18:15:15.355485 17816 layer_factory.hpp:77] Creating layer relu4
I0729 18:15:15.355497 17816 net.cpp:91] Creating Layer relu4
I0729 18:15:15.355504 17816 net.cpp:425] relu4 <- conv4
I0729 18:15:15.355515 17816 net.cpp:386] relu4 -> conv4 (in-place)
I0729 18:15:15.355526 17816 net.cpp:141] Setting up relu4
I0729 18:15:15.355533 17816 net.cpp:148] Top shape: 25 384 13 13 (1622400)
I0729 18:15:15.355538 17816 net.cpp:156] Memory required for data: 159471800
I0729 18:15:15.355553 17816 layer_factory.hpp:77] Creating layer conv5
I0729 18:15:15.355567 17816 net.cpp:91] Creating Layer conv5
I0729 18:15:15.355573 17816 net.cpp:425] conv5 <- conv4
I0729 18:15:15.355582 17816 net.cpp:399] conv5 -> conv5
I0729 18:15:15.368950 17816 net.cpp:141] Setting up conv5
I0729 18:15:15.368981 17816 net.cpp:148] Top shape: 25 256 13 13 (1081600)
I0729 18:15:15.368998 17816 net.cpp:156] Memory required for data: 163798200
I0729 18:15:15.369014 17816 layer_factory.hpp:77] Creating layer relu5
I0729 18:15:15.369026 17816 net.cpp:91] Creating Layer relu5
I0729 18:15:15.369043 17816 net.cpp:425] relu5 <- conv5
I0729 18:15:15.369053 17816 net.cpp:386] relu5 -> conv5 (in-place)
I0729 18:15:15.369096 17816 net.cpp:141] Setting up relu5
I0729 18:15:15.369105 17816 net.cpp:148] Top shape: 25 256 13 13 (1081600)
I0729 18:15:15.369112 17816 net.cpp:156] Memory required for data: 168124600
I0729 18:15:15.369117 17816 layer_factory.hpp:77] Creating layer pool5
I0729 18:15:15.369127 17816 net.cpp:91] Creating Layer pool5
I0729 18:15:15.369143 17816 net.cpp:425] pool5 <- conv5
I0729 18:15:15.369151 17816 net.cpp:399] pool5 -> pool5
I0729 18:15:15.369190 17816 net.cpp:141] Setting up pool5
I0729 18:15:15.369202 17816 net.cpp:148] Top shape: 25 256 6 6 (230400)
I0729 18:15:15.369217 17816 net.cpp:156] Memory required for data: 169046200
I0729 18:15:15.369223 17816 layer_factory.hpp:77] Creating layer fc6
I0729 18:15:15.369235 17816 net.cpp:91] Creating Layer fc6
I0729 18:15:15.369240 17816 net.cpp:425] fc6 <- pool5
I0729 18:15:15.369249 17816 net.cpp:399] fc6 -> fc6
I0729 18:15:16.425621 17816 net.cpp:141] Setting up fc6
I0729 18:15:16.425664 17816 net.cpp:148] Top shape: 25 4096 (102400)
I0729 18:15:16.425673 17816 net.cpp:156] Memory required for data: 169455800
I0729 18:15:16.425685 17816 layer_factory.hpp:77] Creating layer relu6
I0729 18:15:16.425699 17816 net.cpp:91] Creating Layer relu6
I0729 18:15:16.425706 17816 net.cpp:425] relu6 <- fc6
I0729 18:15:16.425716 17816 net.cpp:386] relu6 -> fc6 (in-place)
I0729 18:15:16.425729 17816 net.cpp:141] Setting up relu6
I0729 18:15:16.425745 17816 net.cpp:148] Top shape: 25 4096 (102400)
I0729 18:15:16.425751 17816 net.cpp:156] Memory required for data: 169865400
I0729 18:15:16.425756 17816 layer_factory.hpp:77] Creating layer drop6
I0729 18:15:16.425765 17816 net.cpp:91] Creating Layer drop6
I0729 18:15:16.425771 17816 net.cpp:425] drop6 <- fc6
I0729 18:15:16.425779 17816 net.cpp:386] drop6 -> fc6 (in-place)
I0729 18:15:16.425817 17816 net.cpp:141] Setting up drop6
I0729 18:15:16.425825 17816 net.cpp:148] Top shape: 25 4096 (102400)
I0729 18:15:16.425832 17816 net.cpp:156] Memory required for data: 170275000
I0729 18:15:16.425837 17816 layer_factory.hpp:77] Creating layer fc7
I0729 18:15:16.425848 17816 net.cpp:91] Creating Layer fc7
I0729 18:15:16.425853 17816 net.cpp:425] fc7 <- fc6
I0729 18:15:16.425863 17816 net.cpp:399] fc7 -> fc7
I0729 18:15:16.897529 17816 net.cpp:141] Setting up fc7
I0729 18:15:16.897563 17816 net.cpp:148] Top shape: 25 4096 (102400)
I0729 18:15:16.897583 17816 net.cpp:156] Memory required for data: 170684600
I0729 18:15:16.897596 17816 layer_factory.hpp:77] Creating layer relu7
I0729 18:15:16.897609 17816 net.cpp:91] Creating Layer relu7
I0729 18:15:16.897617 17816 net.cpp:425] relu7 <- fc7
I0729 18:15:16.897627 17816 net.cpp:386] relu7 -> fc7 (in-place)
I0729 18:15:16.897639 17816 net.cpp:141] Setting up relu7
I0729 18:15:16.897646 17816 net.cpp:148] Top shape: 25 4096 (102400)
I0729 18:15:16.897651 17816 net.cpp:156] Memory required for data: 171094200
I0729 18:15:16.897671 17816 layer_factory.hpp:77] Creating layer drop7
I0729 18:15:16.897680 17816 net.cpp:91] Creating Layer drop7
I0729 18:15:16.897686 17816 net.cpp:425] drop7 <- fc7
I0729 18:15:16.897693 17816 net.cpp:386] drop7 -> fc7 (in-place)
I0729 18:15:16.897722 17816 net.cpp:141] Setting up drop7
I0729 18:15:16.897743 17816 net.cpp:148] Top shape: 25 4096 (102400)
I0729 18:15:16.897749 17816 net.cpp:156] Memory required for data: 171503800
I0729 18:15:16.897755 17816 layer_factory.hpp:77] Creating layer fc8-cats-dogs
I0729 18:15:16.897765 17816 net.cpp:91] Creating Layer fc8-cats-dogs
I0729 18:15:16.897771 17816 net.cpp:425] fc8-cats-dogs <- fc7
I0729 18:15:16.897779 17816 net.cpp:399] fc8-cats-dogs -> fc8-cats-dogs
I0729 18:15:16.898097 17816 net.cpp:141] Setting up fc8-cats-dogs
I0729 18:15:16.898108 17816 net.cpp:148] Top shape: 25 2 (50)
I0729 18:15:16.898114 17816 net.cpp:156] Memory required for data: 171504000
I0729 18:15:16.898136 17816 layer_factory.hpp:77] Creating layer fc8-cats-dogs_fc8-cats-dogs_0_split
I0729 18:15:16.898144 17816 net.cpp:91] Creating Layer fc8-cats-dogs_fc8-cats-dogs_0_split
I0729 18:15:16.898150 17816 net.cpp:425] fc8-cats-dogs_fc8-cats-dogs_0_split <- fc8-cats-dogs
I0729 18:15:16.898178 17816 net.cpp:399] fc8-cats-dogs_fc8-cats-dogs_0_split -> fc8-cats-dogs_fc8-cats-dogs_0_split_0
I0729 18:15:16.898190 17816 net.cpp:399] fc8-cats-dogs_fc8-cats-dogs_0_split -> fc8-cats-dogs_fc8-cats-dogs_0_split_1
I0729 18:15:16.898222 17816 net.cpp:141] Setting up fc8-cats-dogs_fc8-cats-dogs_0_split
I0729 18:15:16.898231 17816 net.cpp:148] Top shape: 25 2 (50)
I0729 18:15:16.898237 17816 net.cpp:148] Top shape: 25 2 (50)
I0729 18:15:16.898243 17816 net.cpp:156] Memory required for data: 171504400
I0729 18:15:16.898249 17816 layer_factory.hpp:77] Creating layer accuracy
I0729 18:15:16.898264 17816 net.cpp:91] Creating Layer accuracy
I0729 18:15:16.898270 17816 net.cpp:425] accuracy <- fc8-cats-dogs_fc8-cats-dogs_0_split_0
I0729 18:15:16.898277 17816 net.cpp:425] accuracy <- label_data_1_split_0
I0729 18:15:16.898285 17816 net.cpp:399] accuracy -> accuracy
…
